resultados/imagens/P148_K2/3271i07-nn-model.pt (torch, 2703 bytes, 8 tensors)

fc1.weight f4 [4, 3]
000000 2e a4 4b 3f 93 0c d2 be b8 cd 75 3e 95 7f 05 3d
       0.79547393 -0.41025218 0.24004257 0.032592375
000010 fd d7 aa 3e c4 fb 70 3e 22 47 5a 3d 6f 0c 04 bc
       0.3336791 0.23533541 0.053290494 -0.008059605
000020 9d ed df be 7d 44 86 be 55 6b 46 3d 12 ae 20 3f
       -0.43735972 -0.26224127 0.048442204 0.6276561

fc1.bias f4 [4]
000000 e0 3a 71 3e 8a c6 44 be 6f d7 f2 be cb c9 00 3f
       0.23557615 -0.19216362 -0.47429988 0.5030791

fc2.weight f4 [4, 4]
000000 0a 3d 1f 3f be 98 06 be fe 8f 97 be a7 5d 4c be
       0.62202513 -0.13144204 -0.29602045 -0.199576
000010 f4 6f 14 bf f6 31 d5 3e f8 32 8d 3d 94 6c 9c 3d
       -0.57983327 0.4163968 0.06894487 0.07637897
000020 b1 e8 fa 3d 7c 7e a1 be 4c 01 e1 3e 89 f3 e9 3e
       0.122514136 -0.31541812 0.43946302 0.45693615
000030 76 f6 c4 3e c6 85 4d 3e 80 3e 18 3d af e7 33 3d
       0.38469285 0.20070562 0.03716898 0.043922123

fc2.bias f4 [4]
000000 33 cf 28 3f f2 0c 0e 3f 50 e9 09 3f 8a 84 2e 3e
       0.6594116 0.554885 0.5387163 0.17042747

fc3.weight f4 [4, 4]
000000 de 7e a9 3e 5e 5d 8b 3e 34 93 8f be 00 2f e4 be
       0.33104604 0.2721967 -0.28041995 -0.44567108
000010 00 41 14 3f 81 4b 45 bf a9 17 a3 be f6 bc e1 3e
       0.5791168 -0.77068335 -0.3185399 0.44089478
000020 6c 72 1b 3e 2a d1 ab be e8 f1 f8 bd fc 97 f7 be
       0.15180367 -0.33558017 -0.12155515 -0.48358142
000030 6b 39 20 be 4b ae d7 3e 54 5c ee 3e 41 5e ac be
       -0.15646903 0.42125162 0.46554816 -0.3366566

fc3.bias f4 [4]
000000 54 c3 df be 8f 02 12 bf 8c 00 ae 3e d0 2f ba be
       -0.4370371 -0.57035154 0.33984792 -0.36364603

fc4.weight f4 [2, 4]
000000 17 b2 40 3e 24 37 7b bb 06 07 be 3e a2 fa a8 be
       0.18817936 -0.0038332427 0.37114733 -0.33003718
000010 60 95 03 be c1 9b 42 be 80 6a 9d bc 5d 32 cd 3e
       -0.12849951 -0.19004728 -0.019215822 0.40077487

fc4.bias f4 [2]
000000 b1 b8 9a bd df b1 70 be
       -0.07554758 -0.23505352
