resultados/imagens/P148_K2/3271i01-nn-model.pt (torch, 2703 bytes, 8 tensors)

fc1.weight f4 [4, 3]
00000000: fe9b c6be 7cd2 7ebe 30ab 273f 28c1 c6be
00000010: d506 f33d 39d8 b9bd f4a8 333f 8d84 e6be
00000020: d46e bb3e f74d 203f c9f1 853e d97a 1a3e
-0.38790888 -0.24884981 0.65495586 -0.38819242 0.118665375 -0.09074444 0.70179677 -0.45023003
0.36607993 0.62618965 0.2616103 0.15085925

fc1.bias f4 [4]
00000000: 16fc 083f 4f62 e93e be50 83bf e5be d7bd
0.5350965 0.45582816 -1.0259016 -0.10534457

fc2.weight f4 [4, 4]
00000000: 719e 7ebc 84aa 3e3e 403e 34bc 686b fa3e
00000010: 6d43 233f 28c7 99bd b5e9 0cbe fb78 803e
00000020: 42dd e93e dcd0 25be 2e00 5cbe 5b26 e7bd
00000030: db75 0dbe f084 2abe 70c8 e03e 979d e23e
-0.015540705 0.18619734 -0.01100117 0.4891007 0.6377476 -0.07508689 -0.13761027 0.250923
0.4567662 -0.16192955 -0.21484444 -0.112866126 -0.1381449 -0.16652274 0.43902922 0.44260857

fc2.bias f4 [4]
00000000: 0dd8 0b3b f0fb 413f b148 b83e f104 4fbf
0.0021338493 0.7577505 0.3599296 -0.80866915

fc3.weight f4 [4, 4]
00000000: 31ef 3a3e 49d5 83be 3b9a 22bf e9a5 fc3d
00000010: 3faf a03e b168 863e 6d20 ddbe 0613 7bbe
00000020: 4b19 85bb 4bad 27be c050 8b3c 6554 95bc
00000030: 58dd c4be e4a0 043e e6ee a9be 5854 e7bd
0.18255307 -0.2574866 -0.63516587 0.12336332 0.31383702 0.26251748 -0.431888 -0.24518976
-0.004061853 -0.163747 0.017006278 -0.018228719 -0.38450122 0.12952 -0.33190078 -0.11295384

fc3.bias f4 [4]
00000000: 8dcc 53bf 7b18 1f3e 48b2 8bbe 204d 053e
-0.82733995 0.15536682 -0.27284455 0.13017702

fc4.weight f4 [2, 4]
00000000: e01c 0e3f 9f26 44be 7e38 84bd beb4 d83e
00000010: 7473 edbd 4f26 963d bebb 24be 0005 2e3b
0.5551281 -0.19155358 -0.064560875 0.42325395 -0.115942866 0.073315255 -0.16087243 0.0026553273

fc4.bias f4 [2]
00000000: a174 15bf 733a 823f
-0.58381087 1.0174087
