resultados/imagens/P148_K2/3271i09-nn-model.pt (torch, 2703 bytes, 8 tensors)

fc1.weight f4 [4, 3]
00000000: 2949 2cbf 408f c23e ea34 003f 7654 80bf
00000010: ce7a d93e 5211 383f 0454 fe3e fa80 0c3f
00000020: 01cf 033e e8b5 113f 185c c93d 2e5c 12bf
-0.67299134 0.37999916 0.5008074 -1.0025775 0.42476505 0.7190143 0.49673474 0.548843
0.12871934 0.5691819 0.098320186 -0.57171905

fc1.bias f4 [4]
00000000: 9c06 6bbf 396e 71bf 1a44 853e 3c55 193f
-0.9180696 -0.9430881 0.2602852 0.5989568

fc2.weight f4 [4, 4]
00000000: 3083 f9bd b057 2fbe 1445 1abe 898b d03e
00000010: 40e8 35bc b8e8 eebd 62fd bdbe b088 b0bd
00000020: 305a 30be 91b2 b2be 29c0 ba3e 0417 7cbe
00000030: b4fa 553e 341e 28be 66a7 b7be 00ba 8fbe
-0.12183225 -0.17123294 -0.15065414 0.40731457 -0.011102736 -0.11665481 -0.37107378 -0.08619821
-0.17221904 -0.3490186 0.36474732 -0.24618155 0.20896417 -0.16417772 -0.35869902 -0.28071594

fc2.bias f4 [4]
00000000: 926a cb3e 0052 fcbe e28b c63e 9ce5 68be
0.39729744 -0.4928131 0.38778597 -0.22743839

fc3.weight f4 [4, 4]
00000000: dad5 a0be e08e 94bc f834 b1be 545e 7dbe
00000010: 1641 e53e 7c05 b33e 458b b4be c232 92be
00000020: 4301 87bd e87c 7d3e 8a9d 923e cc27 d4be
00000030: bd0a 8cbe 284f c43d 4754 2abf baf0 c83e
-0.31413156 -0.018134534 -0.34610724 -0.24743015 0.4477622 0.34965122 -0.35262504 -0.2855435
-0.065920375 0.24754679 0.28635818 -0.41436613 -0.27351943 0.0958541 -0.6653485 0.3924616

fc3.bias f4 [4]
00000000: 4005 20be 1e98 173f d978 113d 57e1 4d3f
-0.15627003 0.5921649 0.03551564 0.80421966

fc4.weight f4 [2, 4]
00000000: 84b4 39be 99a2 4fbf a0b9 b33e 9306 0dbf
00000010: 5297 ad3e 21d1 2b3f ef2b 4cbe 9cf5 8f3f
-0.18135267 -0.8110748 0.35102558 -0.55088156 0.3390451 0.6711598 -0.19938634 1.1246829

fc4.bias f4 [2]
00000000: 62c7 a7be 09b9 e23d
-0.32769305 0.11070449
