resultados/imagens/P148_K2/3271i08-nn-model.pt (torch, 2703 bytes, 8 tensors)

fc1.weight f4 [4, 3]
-0.14128 -0.35433584 -0.42249876 -0.35824892 -0.2355207 0.022115221 0.07583498 0.14595132
-0.44200373 0.69706875 0.25706312 -0.5153964
00000000: b4ab 10be 826b b5be c251 d8be 676c b7be
00000010: 572c 71be fb2a b53c 5f4f 9b3d 4374 153e
00000020: 504e e2be 1973 323f c79d 833e 05f1 03bf

fc1.bias f4 [4]
-0.09037884 0.5599016 0.32691953 0.025109148
00000000: 8b18 b9bd b655 0f3f ff61 a73e b3b1 cd3c

fc2.weight f4 [4, 4]
0.43917835 0.48002762 -0.36942828 -0.46546656 0.3692103 0.46508002 -0.16785318 0.48798934
0.11234784 -0.11000335 -0.026296556 0.2931579 0.06203586 0.31287998 -0.37619716 0.03645516
00000000: fcdb e03e 2ec6 f53e b425 bdbe a251 eebe
00000010: 2209 bd3e f81e ee3e b4e1 2bbe bdd9 f93e
00000020: a016 e63d 7049 e1bd e06b d7bc cb18 963e
00000030: 5019 7e3d ce31 a03e ea9c c0be 0152 153d

fc2.bias f4 [4]
-0.39258105 -0.58939344 -0.18108463 0.5297639
00000000: 6200 c9be 7de2 16bf 406e 39be 9b9e 073f

fc3.weight f4 [4, 4]
0.46984917 0.08991617 -0.14127374 -0.47821927 -0.35684705 0.304396 0.19955942 -0.12342642
0.05978626 0.37196496 0.56708497 0.081904545 -0.0946095 -0.44755358 -0.0400995 -0.36072594
00000000: 1290 f03e f825 b83d 10aa 10be 28d9 f4be
00000010: a8b4 b6be cbd9 9b3e 4e59 4c3e fec6 fcbd
00000020: 70e2 743d 3172 be3e 7b2c 113f 92bd a73d
00000030: a0c2 c1bd be25 e5be 603f 24bd 12b1 b8be

fc3.bias f4 [4]
-0.5014084 -0.7781841 -0.58032155 -0.16413665
00000000: 4d5c 00bf 1337 47bf f48f 14bf 7013 28be

fc4.weight f4 [2, 4]
0.15098532 0.14892429 0.031841993 0.25107324 -0.50446314 -0.3377619 -0.12604098 -0.26049066
00000000: e59b 1a3e 9c7f 183e c06c 023d ac8c 803e
00000010: 7f24 01bf 21ef acbe e310 01be 085f 85be

fc4.bias f4 [2]
-1.2440146 1.1200469
00000000: df3b 9fbf b25d 8f3f
