resultados/imagens/P148_K2/3271i05-nn-model.pt (torch, 2703 bytes, 8 tensors)

fc1.weight f4 [4, 3]
0.4765907 -0.14829431 0.0130720325 0.041520644 -0.54412717 -0.078955874 0.19507621 -0.2269584
-0.27096358 -0.035425995 0.19338344 0.04544219
00000000: b203 f43e 77da 17be 142c 563c 8d11 2a3d
00000010: eb4b 0bbf 9eb3 a1bd 0fc2 473e c867 68be
00000020: bdbb 8abe d91a 11bd 4f06 463e 9721 3a3d

fc1.bias f4 [4]
0.18428764 0.08538115 0.54557186 -0.12252511
00000000: e6b5 3c3e 50dc ae3d 99aa 0b3f 72ee fabd

fc2.weight f4 [4, 4]
0.037296407 0.14924008 0.4789217 0.09408747 0.56849486 -0.08030981 0.41096127 -0.15993732
0.09076933 -0.31257486 -0.30322665 -0.48097372 -0.06694942 -0.17908764 0.06446135 0.41793957
00000000: 1ec4 183d 64d2 183e 3a35 f53e eeb0 c03d
00000010: e188 113f 7879 a4bd 8469 d23e 9cc6 23be
00000020: 45e5 b93d d009 a0be 8640 9bbe 3042 f6be
00000030: c71c 89bd c062 37be 5004 843d 2dfc d53e

fc2.bias f4 [4]
0.33511704 0.43909267 -0.36267522 -0.2670863
00000000: 7694 ab3e c1d0 e03e 91b0 b9be 89bf 88be

fc3.weight f4 [4, 4]
-0.14888728 0.14268574 0.31586385 -0.60351616 0.47996518 0.3227774 0.22974719 0.1869827
0.5144688 -0.69046545 0.4215122 0.49281093 -0.30686617 -0.3964365 -0.19316411 -0.17021978
00000000: e875 18be 361c 123e e8b8 a13e 0980 1abf
00000010: ffbd f53e 1443 a53e d942 6b3e 6578 3f3e
00000020: 3ab4 033f 58c2 30bf 72d0 d73e b751 fc3e
00000030: 901d 9dbe baf9 cabe d0cc 45be 184e 2ebe

fc3.bias f4 [4]
0.50020134 0.49793395 -0.005370211 -0.4894688
00000000: 320d 003f 33f1 fe3e 98f8 afbb a89b fabe

fc4.weight f4 [2, 4]
-0.52654207 0.5125404 -0.5872679 0.08886057 0.17399165 0.13100536 0.7630979 -0.073840916
00000000: 76cb 06bf d935 033f 3057 16bf 88fc b53d
00000010: de2a 323e 4526 063e 625a 433f e839 97bd

fc4.bias f4 [2]
0.49195984 -0.16590185
00000000: 29e2 fb3e 2de2 29be
