resultados/imagens/P148_K2/3271i04-nn-model.pt (torch, 2703 bytes, 8 tensors)

fc1.weight f4 [4, 3]
0.0027964502 0.4200963 0.36580577 -0.042140316 0.04921803 0.47269335 -0.06033905 0.2634582
-0.28207895 0.5524421 0.51503193 -0.040618908
00000000: a644 373b dd16 d73e e54a bb3e 539b 2cbd
00000010: d898 493d dd04 f23e 1426 77bd fee3 863e
00000020: a76c 90be d86c 0d3f 22d9 033f 0360 26bd

fc1.bias f4 [4]
-0.04464192 -0.33259323 -0.17643753 0.209696
00000000: 72da 36bd a949 aabe 0aac 34be 8cba 563e

fc2.weight f4 [4, 4]
0.43248424 0.3587294 0.32668084 -0.5937429 0.38381258 -0.47900793 -0.48224363 -0.122725636
0.13472515 -0.41610712 -0.24334753 -0.03937441 -0.25273943 -0.21867537 0.019665897 -0.2884773
00000000: 936e dd3e 61ab b73e b642 a73e 89ff 17bf
00000010: 1583 c43e 8740 f5be a3e8 f6be 9457 fbbd
00000020: 64f5 093e fe0b d5be 1830 79be 1047 21bd
00000030: 1067 81be 70ec 5fbe 601a a13c 4cb3 93be

fc2.bias f4 [4]
0.3332427 0.15880549 0.11969435 -0.38884956
00000000: ca9e aa3e e89d 223e 5022 f53d 4a17 c7be

fc3.weight f4 [4, 4]
-0.34758013 -0.47352177 0.20872563 0.12318033 0.42479923 0.08263636 0.16144747 0.4574886
0.04349402 -0.45774567 0.257959 -0.07765055 0.2062111 -0.04884436 -0.36845595 -0.308425
00000000: 06f6 b1be 7271 f2be 2cbc 553e f845 fc3d
00000010: 497f d93e 403d a93d 7c52 253e f23b ea3e
00000020: c926 323d a45d eabe 3413 843e 4007 9fbd
00000030: 0129 533e 0611 48bd 42a6 bcbe e2e9 9dbe

fc3.bias f4 [4]
-0.14210027 -0.60425293 0.98693454 -0.104863346
00000000: bc82 11be 52b0 1abf bea7 7c3f 98c2 d6bd

fc4.weight f4 [2, 4]
0.065947056 -0.41123575 -0.06112431 -0.29602504 0.2739041 0.0954453 -0.20377022 0.19447914
00000000: 400f 873d 7e8d d2be 7c5d 7abd 9890 97be
00000010: 283d 8c3e d378 c33d 24a9 50be 8a25 473e

fc4.bias f4 [2]
1.0545018 -1.2601691
00000000: eaf9 863f 394d a1bf
