resultados/imagens/P148_K2/3271i03-nn-model.pt (torch, 2703 bytes, 8 tensors)

fc1.weight f4 [4, 3]
-0.40785062 0.20391747 -0.43223077 -0.2973037 0.5095184 0.18902795 0.34768113 0.2844972
-0.30864602 0.07315726 0.2865764 -0.4424394
00000000: ccd1 d0be becf 503e 5a4d ddbe 3138 98be
00000010: cc6f 023f 8b90 413e 4303 b23e 9ea9 913e
00000020: da06 9ebe 79d3 953d 24ba 923e 6b87 e2be

fc1.bias f4 [4]
-0.56576735 -0.70083296 0.2850027 -0.2990963
00000000: 21d6 10bf ca69 33bf e0eb 913e 2623 99be

fc2.weight f4 [4, 4]
0.27161723 0.11802064 0.28026402 -0.8430543 0.32892853 -0.42815495 -0.19947219 -0.27869958
-0.34749794 -0.43819737 0.08135635 0.13086373 0.17378056 0.14647904 -0.32162198 0.67387307
00000000: 6a11 8b3e ceb4 f13d c47e 8f3e 68d2 57bf
00000010: 5269 a83e 2037 dbbe 7042 4cbe b6b1 8ebe
00000020: 40eb b1be 685b e0be 289e a63d 2401 063e
00000030: 88f3 313e 9afe 153e a3ab a4be f282 2c3f

fc2.bias f4 [4]
0.16468975 -0.31968153 0.22416174 -0.13784902
00000000: 6ea4 283e 4cad a3be a88a 653e 4b28 0dbe

fc3.weight f4 [4, 4]
0.32598874 -0.12006998 -0.1400311 -0.6607466 0.2045567 -0.034371555 -0.31934613 0.97230047
0.29927984 -0.4027241 0.300748 -0.6013806 -0.28276426 -0.055583775 0.07319158 -0.39494675
00000000: ffe7 a63e 40e7 f5bd 5064 0fbe b026 29bf
00000010: 5077 513e 30c9 0cbd 5681 a3be afe8 783f
00000020: 353b 993e da31 cebe a4fb 993e 14f4 19bf
00000030: 7ac6 90be d0ab 63bd 78e5 953d 7636 cabe

fc3.bias f4 [4]
0.51559395 0.3773867 0.23563083 -0.3306111
00000000: f7fd 033f d438 c13e 3549 713e dc45 a9be

fc4.weight f4 [2, 4]
-0.0048653684 -0.58234996 0.31628686 0.16476572 -0.1732025 -0.023239069 -0.29069367 -0.49855947
00000000: ab6d 9fbb e314 15bf 5af0 a13e 58b8 283e
00000010: ff5b 31be dc5f bebc cdd5 94be 3043 ffbe

fc4.bias f4 [2]
0.17695893 -0.40728664
00000000: b934 353e e087 d0be
