resultados/imagens/P240_K104/3251i03-nn-model.pt (torch, 2703 bytes, 8 tensors)

fc1.weight f4 [4, 3]
00000000: 7b53 8dbe 8fbb ff3d 7b6e 853e 4b81 03bf
00000010: 1ff1 21be 712a d2be f36e cebe 4ccd f83e
00000020: a7ac 6539 96b7 0c3f 0fc6 e53e 1079 1fbe
-0.27602753 0.12486946 0.26060852 -0.5136916 -0.15814637 -0.41048005 -0.40319023 0.4859413
0.0002190346 0.5496763 0.4487767 -0.15573525

fc1.bias f4 [4]
00000000: 0017 cdbe c475 69be 6c8a 3d3f 2f1d 463e
-0.4005661 -0.2279883 0.7403934 0.1934707

fc2.weight f4 [4, 4]
00000000: f275 633e b485 823e 9ad2 cb3e 638f 57be
00000010: 2058 00bf 94a2 db3e 28bf 903e 4a48 68bc
00000020: 681d d5be 2871 f03d 203d 88bc 1ef8 ccbe
00000030: f661 c3be 5876 dcbe 0c2f 1bbe d83d 58be
0.22212961 0.25492632 0.39809114 -0.21050791 -0.5013447 0.42897475 0.2827084 -0.014177391
-0.41623998 0.11740333 -0.01663071 -0.40033048 -0.38160676 -0.4305904 -0.15154666 -0.21117342

fc2.bias f4 [4]
00000000: 1e28 bd3c 971e a23e 2458 933e bcca 57be
0.023090418 0.31663963 0.28778183 -0.21073431

fc3.weight f4 [4, 4]
00000000: caaa 69be fd17 2f3e f018 023e 3c64 ed3e
00000010: e628 5f3f 7d89 dd3e 804d 3ebe d431 73be
00000020: 50ec b1bd 9c1d 27be deda da3e f831 e43d
00000030: 58ec adbe c6ba bb3e 46f1 b0be b44e e63e
-0.22819057 0.17098995 0.12704825 0.46365535 0.8717178 0.43268958 -0.18584251 -0.23749477
-0.08687651 -0.16319889 0.42745107 0.11142343 -0.33969378 0.36665934 -0.34559077 0.4498192

fc3.bias f4 [4]
00000000: 4e43 bf3f 3fcd 3bbb 885b f4be 356e edbb
1.4942415 -0.0028656272 -0.47726083 -0.0072458037

fc4.weight f4 [2, 4]
00000000: 1887 8c3f 6eda 65be 5a92 83be de78 a63e
00000010: 16db 18bf 151d 1f3f d430 d8be 440c 603e
1.0978727 -0.22446606 -0.25697595 0.3251409 -0.597093 0.6215375 -0.42224753 0.21879679

fc4.bias f4 [2]
00000000: dd1f 953e a674 1cbf
0.29125872 -0.6111549
