resultados/imagens/P240_K104/3251i02-nn-model.pt (torch, 2703 bytes, 8 tensors)

fc1.weight f4 [4, 3]
000000 70 8c 2b 3e d5 57 80 be 6d 36 8b bd 3e d6 e1 3e
       0.16752791 -0.2506701 -0.0679749 0.44108766
000010 8c 9e a8 3e 7f a1 9b be ba eb 96 be d3 ba ed 3e
       0.32933462 -0.3039665 -0.2947672 0.46431598
000020 2f c3 b8 3e 84 0a 03 3e ec ec 4a 3e ab 71 ec 3e
       0.36086413 0.1279698 0.19816941 0.46180472

fc1.bias f4 [4]
000000 9c 41 ad be 04 38 ed bd 02 ce 3e 3e cd 53 a3 3e
       -0.33839118 -0.1158295 0.18633273 0.31899872

fc2.weight f4 [4, 4]
000000 70 ef 3a be 84 3d 67 bf ae 4d 0c 3e f1 ae 95 3e
       -0.182554 -0.9032824 0.13701507 0.29235032
000010 a8 66 21 be 4a 54 86 3e 78 d5 fb be 48 3f 46 3e
       -0.15761817 0.26236182 -0.491863 0.19360077
000020 48 fa 27 be 90 c9 e7 be 96 3d ec be b8 84 36 3e
       -0.16404068 -0.45270967 -0.46140736 0.17824066
000030 6a 57 bb be 6f 4b 75 be 2d 66 36 be d3 3b d7 3d
       -0.3659013 -0.23954557 -0.17812414 0.105094574

fc2.bias f4 [4]
000000 94 5a 64 3e 6c c3 17 3e b6 56 de 3e cb 08 cd be
       0.22300178 0.14820641 0.4342553 -0.4004577

fc3.weight f4 [4, 4]
000000 b9 26 55 3e bc da be 3e 90 e8 4e 3d 2a 8b 8f 3d
       0.20815553 0.37276256 0.050514758 0.07008965
000010 39 b4 a3 3e 61 2d a7 be 20 1f d4 3e 9d a9 88 be
       0.31973436 -0.3265181 0.41429996 -0.26691905
000020 dc 39 81 3e 88 24 e9 be 18 80 de be cd e5 16 3e
       0.25239456 -0.45535684 -0.43457103 0.147361
000030 6e 8c f4 bb 00 6a bc 3b f6 31 e9 3e ea 9b 68 3e
       -0.0074630296 0.005749941 0.4554593 0.22715726

fc3.bias f4 [4]
000000 98 74 17 3a 48 00 84 3a f2 ff 55 3b a1 47 ac be
       0.00057775667 0.0010070885 0.0032653776 -0.336484

fc4.weight f4 [2, 4]
000000 ff 39 a2 be 7b a3 eb be 53 c4 e9 be eb 5c 80 bc
       -0.31684873 -0.46023163 -0.45657596 -0.015669307
000010 4e ff 47 be ee a9 89 be b7 a9 19 3f 25 29 dc 3e
       -0.19530985 -0.2688746 0.6002459 0.4300014

fc4.bias f4 [2]
000000 6b 9a bd 3f 2d 6c b4 bf
       1.481275 -1.4095513
