resultados/imagens/P240_K104/3251i05-nn-model.pt (torch, 2703 bytes, 8 tensors)

fc1.weight f4 [4, 3]
0	0xbe83b956	-0.25727338
1	0xbf20424a	-0.6260115
2	0x3e3fcd22	0.18730596
3	0x3dccc587	0.09998613
4	0xbee390a9	-0.44446304
5	0xbed5668d	-0.41679803
6	0xbf2c8490	-0.67389774
7	0x3ecf011a	0.40430528
8	0xbbf03d03	-0.007331492
9	0xbea62eb4	-0.32457507
10	0xbea3880a	-0.31939727
11	0x3e6a56b1	0.22884633

fc1.bias f4 [4]
0	0x3e94835d	0.29006472
1	0xbef55eae	-0.47923797
2	0x3f501075	0.8127511
3	0xbe6d43e8	-0.23170435

fc2.weight f4 [4, 4]
0	0xbe02dbbb	-0.12779133
1	0x3dc45c90	0.095879674
2	0xbea33b79	-0.31881312
3	0x3e83df68	0.25756383
4	0x3d1de5c5	0.038549203
5	0x3e308fe8	0.17242396
6	0x3d7172e4	0.05894746
7	0x3ec836e2	0.39104372
8	0xbe07da37	-0.13266836
9	0xbe5e8fac	-0.21734494
10	0x3f1a7aeb	0.6034381
11	0x3c9a2d78	0.01882051
12	0xbd6d48f0	-0.057930887
13	0x3ee52c2e	0.4476027
14	0xbf6e8502	-0.93171704
15	0xbefcdef3	-0.49388847

fc2.bias f4 [4]
0	0x3f763f23	0.9619009
1	0xbe9747d4	-0.29546988
2	0xbc363c8f	-0.011122837
3	0x3f843ba3	1.03307

fc3.weight f4 [4, 4]
0	0x3e1425a3	0.14467482
1	0x3d7d8cd2	0.061901875
2	0xbeeb2ada	-0.4593113
3	0x3fc835dd	1.5641438
4	0x3f39b31f	0.7253894
5	0xbe53f45c	-0.20698684
6	0xbf2d32d8	-0.67655706
7	0x3f6f217d	0.93410474
8	0x3e0eb32c	0.13935536
9	0xbeca7d6c	-0.39548814
10	0xbe1eca1c	-0.15506786
11	0x3e915f5c	0.28393066
12	0xbebc390e	-0.3676228
13	0xbda14f29	-0.07876427
14	0x3ca1c2df	0.019746242
15	0xbe4af00c	-0.19818133

fc3.bias f4 [4]
0	0x3f4671a2	0.7751714
1	0xbd453bb6	-0.048152648
2	0xbf00d6b6	-0.5032762
3	0xbec3141a	-0.38101274

fc4.weight f4 [2, 4]
0	0x3f71b0e7	0.94410557
1	0x3f622365	0.8833526
2	0x3edc2b8f	0.43001983
3	0x3eaf8d44	0.34287465
4	0xbf141002	-0.57836926
5	0xbf0cf618	-0.5506301
6	0x3ed80feb	0.42199644
7	0xbe97bd74	-0.2963673

fc4.bias f4 [2]
0	0xbfb913b0	-1.4459133
1	0x3fa75cb1	1.3075162
