resultados/imagens/P240_K104/3251i08-nn-model.pt (torch, 2703 bytes, 8 tensors)

fc1.weight f4 [4, 3]
0	0xbe9edd40	-0.31028175
1	0xbdec60eb	-0.11541923
2	0x3d0133d5	0.03154357
3	0x3f3c53da	0.7356545
4	0x3efc7e43	0.4931508
5	0xbf0d4b5f	-0.5519313
6	0x3efb90e4	0.4913398
7	0x3f159ef0	0.58445644
8	0x3e149e85	0.14513595
9	0xbe96b936	-0.2943818
10	0x3ebc8482	0.36819845
11	0xbec99d31	-0.3937774

fc1.bias f4 [4]
0	0x3ec5d4e9	0.38639
1	0xbd95f352	-0.073218
2	0x3e7a42e2	0.24439576
3	0xbe488f05	-0.19585808

fc2.weight f4 [4, 4]
0	0x3e928467	0.2861664
1	0x3e3c2860	0.18374777
2	0xbe55ebfb	-0.208908
3	0xbee541c6	-0.44776744
4	0xbe083e7c	-0.13305086
5	0xbb4d0b2a	-0.0031287172
6	0x3ec46a61	0.3836241
7	0xbe480214	-0.19532043
8	0xbeec0380	-0.4609642
9	0x3f2543fb	0.64556855
10	0xbb635801	-0.0034689906
11	0x3e207e50	0.15673184
12	0x3dfef3e5	0.12448863
13	0xbe05f014	-0.13079864
14	0xbea9f340	-0.33193398
15	0x3e7a1e9c	0.24425739

fc2.bias f4 [4]
0	0x3e20e3a3	0.15711837
1	0xbe3a22b8	-0.18177307
2	0xbe6238d8	-0.22091997
3	0xbe0275c6	-0.1274024

fc3.weight f4 [4, 4]
0	0x3e587233	0.21137314
1	0x3eeda2a8	0.4641316
2	0xbe5dc827	-0.21658383
3	0x3e861eae	0.26195282
4	0x3e0718ec	0.131931
5	0x3c241f3f	0.010017215
6	0xbea1d494	-0.31607497
7	0xbee45148	-0.44593263
8	0xbe8df686	-0.27727145
9	0xbdc80df8	-0.09768289
10	0xbe57811c	-0.21045345
11	0xbd9af128	-0.07565528
12	0xbee4f114	-0.44715178
13	0x3c24881f	0.010042219
14	0x3f20b8dc	0.62782073
15	0xbea014a4	-0.31265748

fc3.bias f4 [4]
0	0x3ef1b1af	0.47205874
1	0xbf035f44	-0.5131724
2	0xbdc13ab0	-0.09435022
3	0xbef1d4c1	-0.4723263

fc4.weight f4 [2, 4]
0	0xbeab895a	-0.33503228
1	0xbe9aa13d	-0.3020114
2	0xbe99af1e	-0.30016416
3	0x3e2bcb29	0.16776718
4	0xbd872410	-0.06598675
5	0xbec794c3	-0.38980684
6	0xbe0ffbc4	-0.14060885
7	0xbe07f22b	-0.13275973

fc4.bias f4 [2]
0	0xbef649c4	-0.48103154
1	0x3d691957	0.05690893
