resultados/imagens/P240_K104/3251i06-nn-model.pt (torch, 2703 bytes, 8 tensors)

fc1.weight f4 [4, 3]
00000000: 016b 8b3e 5ba1 fb3e 80d5 d43e 4a03 bcbe
00000010: 3f44 063d ce0b 683e 1ec9 a6be c519 e1be
00000020: 895e 76bd cde5 7abe 16a2 42be 8605 67bd
0.27230075 0.49146542 0.41569138 -0.3672126 0.03277993 0.22660753 -0.32575315 -0.43964973
-0.06014875 -0.24501725 -0.19007143 -0.056401752

fc1.bias f4 [4]
00000000: a69d 81be 4551 b33e d2fb 37be e967 6abd
-0.2531559 0.3502294 -0.17967156 -0.057228003

fc2.weight f4 [4, 4]
00000000: 704f 873e f762 19be 0463 573e 6ada df3e
00000010: 4c5a 43be 0482 143e 40bd 20bc 8034 953e
00000020: 7eaa c9be 5af2 d33e 445e 71be b055 e9be
00000030: b618 b5ba 6795 753f a842 7d3e e43a 62be
0.26427794 -0.14979158 0.21033865 0.43721324 -0.19077414 0.14502722 -0.009810746 0.29141617
-0.39387888 0.41395837 -0.23571116 -0.45573187 -0.0013816569 0.95931095 0.24732459 -0.22092777

fc2.bias f4 [4]
00000000: 0c50 15bf 58b9 f63d 6cf8 f93e 2ead 53be
-0.58325267 0.1204707 0.48822343 -0.20671532

fc3.weight f4 [4, 4]
00000000: 13f8 0b3f bc07 5cbe fa08 c93e 8088 02bf
00000010: 6297 fa3d 7eaa f03e 7e41 8e3e 5176 a93e
00000020: fc30 7fbe ac5b b5be bc38 01be e041 38be
00000030: b050 babd 62fb a7be 3a48 a13e bce6 ffbe
0.54675406 -0.21487325 0.3926466 -0.5098953 0.12235905 0.47005075 0.27784342 0.3309808
-0.2492103 -0.35421503 -0.12619299 -0.1799388 -0.09097421 -0.32808977 0.31500417 -0.49980724

fc3.bias f4 [4]
00000000: e862 53bd a2f2 a2bd 00bc f1ba c0ad d23c
-0.051607996 -0.07956435 -0.0018442869 0.025717616

fc4.weight f4 [2, 4]
00000000: 8634 a43c 9a04 a8be 1824 bd3e 4096 febe
00000010: ba24 b5be 21f2 b53e e6d4 ed3e b020 febd
0.020044576 -0.3281601 0.369416 -0.49724007 -0.35379583 0.35536292 0.4645149 -0.124085784

fc4.bias f4 [2]
00000000: 3f92 dfbe e00c d73b
-0.43666264 0.006562814
