resultados/imagens/P240_K104/3251i04-nn-model.pt (torch, 2703 bytes, 8 tensors)

fc1.weight f4 [4, 3]
0	0x3f41caa5	0.75699836
1	0x3ea17765	0.31536403
2	0xbd1e9f46	-0.038726114
3	0xbec1e18b	-0.37867388
4	0xbe8c5e3d	-0.27415648
5	0x3f0a8832	0.5411407
6	0xbe054ecf	-0.13018344
7	0xbd99e31b	-0.0751402
8	0x3e881b95	0.26583543
9	0xbeb6c8b3	-0.35699996
10	0xbf0a91fc	-0.54129004
11	0x3e55402f	0.20825265

fc1.bias f4 [4]
0	0xbec3c333	-0.38234863
1	0x3e860f15	0.26183382
2	0xbef82323	-0.48464307
3	0xbdb2f0e0	-0.087373495

fc2.weight f4 [4, 4]
0	0xbbff4318	-0.0077899806
1	0x3ebb619d	0.3659791
2	0x3ec302f3	0.38088188
3	0x3eb9aba7	0.36263773
4	0x3ef46327	0.47731897
5	0xbf2dbb33	-0.6786377
6	0xbf00cc3d	-0.5031164
7	0xbce6bdbf	-0.02816665
8	0xbe8f9a06	-0.28047198
9	0xbcf31655	-0.029673735
10	0x3e79d84c	0.24398917
11	0x3d8830c2	0.06649925
12	0x3e70a4aa	0.23500314
13	0x3ec8df71	0.39232972
14	0x3ef279f2	0.47358662
15	0x3e08ee5c	0.13372177

fc2.bias f4 [4]
0	0xbf18d922	-0.5970632
1	0xbf59c2ab	-0.85062665
2	0x3ea5ff0d	0.3242115
3	0x3f318f93	0.693597

fc3.weight f4 [4, 4]
0	0x3e20a12a	0.15686479
1	0xbd72e12f	-0.059296783
2	0xbd49342e	-0.049122028
3	0x3e28abfe	0.1647186
4	0x3ceef538	0.029169664
5	0x3ea1418f	0.3149533
6	0x3dc76305	0.09735683
7	0x3e5a1c05	0.21299751
8	0x3db77010	0.08956921
9	0xbe431484	-0.19050795
10	0x3cd34680	0.025790453
11	0xbdb2f218	-0.08737582
12	0x3f0e9340	0.55693436
13	0xbda3f966	-0.08006553
14	0x3e34f04f	0.17669795
15	0x3ccb9465	0.024851033

fc3.bias f4 [4]
0	0x3efe0931	0.49616387
1	0xbf279d33	-0.6547424
2	0xbed33298	-0.41249537
3	0x3e4833b6	0.19550976

fc4.weight f4 [2, 4]
0	0xbe844ef9	-0.258415
1	0x3e9f97e5	0.31170574
2	0x3edae2d0	0.4275117
3	0xbed3f778	-0.4139974
4	0x3e6cfc45	0.23143108
5	0x3d6276f5	0.055289228
6	0x3ec7d1b6	0.39027184
7	0xbe7196ac	-0.23592633

fc4.bias f4 [2]
0	0xbd8f1c18	-0.0698778
1	0x3e5a73b2	0.21333197
