resultados/imagens/P240_K104/3251i09-nn-model.pt (torch, 2703 bytes, 8 tensors)

fc1.weight f4 [4, 3]
00000000: 0979 f2be a92d 043f ae04 b0be 018d a5be
00000010: a4de 823d 1eef e53d aa90 b4be 9fde d73e
00000020: 6cb7 adbe 9a81 91be cdd0 7b3e 0452 dcbe
-0.47357967 0.5163217 -0.3437857 -0.3233414 0.063901216 0.112272486 -0.3526662 0.42162034
-0.33929002 -0.2841919 0.2459137 -0.43031323

fc1.bias f4 [4]
00000000: 268e ff3d d250 5d3f 704f 49bc 2fe5 0e3f
0.124782845 0.86451447 -0.012287006 0.55818456

fc2.weight f4 [4, 4]
00000000: 009f df3e e71d 0abf 1cd2 d63e 9856 463e
00000010: 3fc3 31bd cdb2 a33e 18c2 cb3d 6816 c7bd
00000020: 06f0 963e 0ab5 cabe 5a61 cdbe 10ec 72bd
00000030: c051 7fbe 96ad 173f 1ea5 ae3e 547a b2be
0.43675995 -0.5395188 0.41957176 0.1936897 -0.04339909 0.31972352 0.0994913 -0.097210705
0.29479998 -0.39591247 -0.40113336 -0.059307158 -0.24933529 0.59249246 0.3411035 -0.34858954

fc2.bias f4 [4]
00000000: 96ea 423f 9125 943e f0e6 e8bd 2174 8b3d
0.761392 0.2893491 -0.11372173 0.06809259

fc3.weight f4 [4, 4]
00000000: f29f d3be e7d9 dd3e 5409 33be 0eb5 c33e
00000010: 2f4b 06bf 1617 f13e 32ce e23e 2fa5 2f3e
00000020: a02e 2ebf dac8 f63e 5e38 d2be 1c04 f63e
00000030: 0ba8 4f3e e486 05be 08dc 60be 453a c9be
-0.41332966 0.4333031 -0.17484027 0.3822407 -0.5245847 0.47087926 0.4429794 0.17152856
-0.68039894 0.48200113 -0.4105863 0.4805001 0.20278947 -0.13039738 -0.21958935 -0.3930227

fc3.bias f4 [4]
00000000: c2d2 103e 71ff 643e 8932 a23e 0646 e8bd
0.14142898 0.22363068 0.3167918 -0.11341481

fc4.weight f4 [2, 4]
00000000: 967d 50be d276 0dbd 8f76 45bf 3d35 82be
00000010: dcdc 953e 2aa0 083f f012 1b3f b28f f93d
-0.20360407 -0.034537144 -0.7713403 -0.25431243 0.29270065 0.5336939 0.6057577 0.12185611

fc4.bias f4 [2]
00000000: 5168 c53f 7e6a a7bf
1.542246 -1.3079374
