resultados/imagens/P240_K104/3251i10-nn-model.pt (torch, 2703 bytes, 8 tensors)

fc1.weight f4 [4, 3]
000000 00 7d 36 bd 23 6d 8c 3d 91 fa b2 3e d9 f2 76 be
       -0.044552803 0.06856754 0.34956792 -0.24116077
000010 46 a1 6f 3e 19 cd 04 bf cf 09 3c bd 07 d0 fc be
       0.23401365 -0.51875454 -0.04590779 -0.49377462
000020 c1 13 05 3f d5 64 99 3e a5 ab 27 3e 3c 1b cf 3e
       0.5198327 0.2995974 0.16374071 0.40450466

fc1.bias f4 [4]
000000 34 50 9a 3e 46 7c 03 3f 6c 4e 92 3e 77 b5 98 be
       0.30139315 0.513615 0.28575456 -0.29825947

fc2.weight f4 [4, 4]
000000 f0 91 5f be c8 32 e2 3d 68 5a 99 3d fc 5e ad be
       -0.21833014 0.11044842 0.07487947 -0.3386153
000010 f8 29 d6 be 1c a1 1c be 08 a9 b4 3e 90 69 df 3b
       -0.41828895 -0.15295833 0.3528521 0.006818004
000020 a6 32 77 be 7b 32 9d 3e e5 9b ce be 46 2b e6 3e
       -0.24140415 0.30702576 -0.40353313 0.4495489
000030 46 53 32 3d 9f f8 6e be 1b 7c 33 3f 8c 87 05 3e
       0.043536447 -0.23337029 0.70111245 0.13039988

fc2.bias f4 [4]
000000 ce 29 ff be eb d2 be 3d 2d 85 96 bd 30 47 75 3e
       -0.49836582 0.09317573 -0.0734962 0.23952937

fc3.weight f4 [4, 4]
000000 80 ab a9 bd f0 3e c7 3d c4 6e bb 3e 82 25 d6 be
       -0.08284664 0.09728801 0.36607945 -0.4182549
000010 3c cb 25 3e 8c 45 8e 3e 90 79 ed bd b8 19 95 bd
       0.16190809 0.27787435 -0.11595452 -0.07280296
000020 90 81 39 3e 46 74 ef 3e 78 28 6f be 06 be fe be
       0.1811583 0.46768397 -0.23355281 -0.4975435
000030 c0 1b 7d 3d 06 bd 03 be 0e de 8c be 49 cb 85 3e
       0.061794043 -0.12865075 -0.27513164 0.26131657

fc3.bias f4 [4]
000000 7f ed 48 be 40 9e 76 be a0 29 85 bc 58 77 b2 3e
       -0.19621848 -0.24083805 -0.0162552 0.34856677

fc4.weight f4 [2, 4]
000000 ae b8 03 3e 00 08 7d ba 34 61 07 3e 3f aa fc be
       0.12863418 -0.0009652376 0.13220674 -0.49348637
000010 bc 53 e6 be 68 ae e7 be 40 d0 72 3e 56 b9 ca 3e
       -0.4498576 -0.4525025 0.23712254 0.39594525

fc4.bias f4 [2]
000000 c2 66 99 be 16 92 02 3f
       -0.2996121 0.5100416
