resultados/imagens/P240_K104/3251i01-nn-model.pt (torch, 2703 bytes, 8 tensors)

fc1.weight f4 [4, 3]
00000000: 16b0 74be 0709 05be e6b0 f3bd d432 e13c
00000010: 2ff0 e13e b3d1 c5be b6d3 0ebf dc19 9d3e
00000020: 9798 cabe 4664 d2be 64cf 91be 1833 8a3c
-0.23895296 -0.12991725 -0.11898975 0.027490057 0.44128558 -0.3863655 -0.55791795 0.30683792
-0.39569542 -0.41092128 -0.2847854 0.016870067

fc1.bias f4 [4]
00000000: fd3c a2be b2ba 3f3e 885b 92be 6544 da3e
-0.31687155 0.18723562 -0.28585458 0.42630306

fc2.weight f4 [4, 4]
00000000: 9450 223e 4580 4dbf c000 593d aa30 ddbd
00000010: a807 bdbd ec73 89be 783c 1cbe ef3d a8be
00000020: 38f8 0bbe 0096 d53a 5cb9 813e 30ec 703d
00000030: d062 7a3e a2ea 7ebd d894 d73e 8232 a23e
0.1585105 -0.8027385 0.05297923 -0.108002976 -0.09229976 -0.26846254 -0.15257442 -0.32859752
-0.13668907 0.0016295314 0.2533673 0.058818996 0.24451756 -0.062235482 0.42105746 0.3167916

fc2.bias f4 [4]
00000000: 93f4 2d3f aa68 723f 0cfb 22be d7cb 8e3f
0.67951316 0.94690955 -0.1591608 1.1155957

fc3.weight f4 [4, 4]
00000000: 20ec a83c 5ca3 eabe 805d 63be a8aa de3e
00000010: 1f77 c1be 5853 ecbe fc6c 223e b669 21bf
00000020: 3fe6 0c3f 0040 483f 808b 753e 4715 693f
00000030: 4081 4e3c 2c35 03be ec0c 823e 28ef 8bbe
0.020620406 -0.45827758 -0.22203636 0.43489575 -0.37786195 -0.46157336 0.15861887 -0.6305193
0.5503883 0.78222656 0.23978996 0.9104809 0.012604058 -0.12813252 0.25400484 -0.273309

fc3.bias f4 [4]
00000000: f413 00bf 6c75 b63f cc15 593c 123b 93be
-0.50030446 1.4254584 0.013249826 -0.28756005

fc4.weight f4 [2, 4]
00000000: d174 04be f391 373f 45b9 8dbf 9805 eb3e
00000010: 6e4d abbe 527a a9bf a784 843f 0010 1eb9
-0.12935187 0.71707076 -1.1072165 0.45902705 -0.33457512 -1.3240454 1.0352982 -0.00015074015

fc4.bias f4 [2]
00000000: b7a9 393e 8972 60bf
0.18131147 -0.87674767
