resultados/Neida/P240_K104/3251i01-nn-model.pt (torch, 2703 bytes, 8 tensors)

fc1.weight f4 [4, 3]
0.14489539 0.018320939 -0.42000982 0.19891585 -0.21381658 0.064727165 -0.373272 0.1009899
0.18451712 0.2597698 -0.46176195 -0.15152466
00000000: 755f 143e cb15 963c 870b d7be 99b0 4b3e
00000010: bcf2 5abe ad8f 843d 821d bfbe cbd3 ce3d
00000020: 0ef2 3c3e 8c00 853e 106c ecbe 4829 1bbe

fc1.bias f4 [4]
0.30160332 0.5764848 0.3657254 0.42896017
00000000: c06b 9a3e 8294 133f 5c40 bb3e aba0 db3e

fc2.weight f4 [4, 4]
0.2501791 -0.40046078 0.08543207 0.2928928 0.028117418 0.24996865 0.38883445 -0.19754076
0.09249717 -0.42877084 -0.0050863037 -0.45600665 -0.21572 -0.46466124 0.3082218 0.49547356
00000000: 7a17 803e 3209 cdbe 02f7 ae3d 0cf6 953e
00000010: 8056 e63c c8f7 7f3e 4f15 c73e 2048 4abe
00000020: 286f bd3d da87 dbbe 02ab a6bb b479 e9be
00000030: b4e5 5cbe 14e8 edbe 3fcf 9d3e b6ae fd3e

fc2.bias f4 [4]
0.36297917 0.058153313 0.78406787 -0.60530823
00000000: 68d8 b93e 2b32 6e3d acb8 483f 7bf5 1abf

fc3.weight f4 [4, 4]
0.27677593 0.099713005 1.1100405 -0.4617927 0.34629634 0.3332982 -0.37665462 -0.17407425
0.31822783 -0.0091049615 1.2796222 -0.31478903 -0.4712985 0.32302544 0.36719248 0.28873032
00000000: 93b5 8d3e 5536 cc3d cf15 8e3f 1870 ecbe
00000010: c14d b13e 10a6 aa3e e0d8 c0be 8540 32be
00000020: c2ee a23e fa2c 15bc a9ca a33f 072c a1be
00000030: 094e f1be 9763 a53e a700 bc3e 76d4 933e

fc3.bias f4 [4]
0.9410935 -0.19173111 0.5580817 0.050210662
00000000: 81eb 703f 2955 44be 71de 0e3f b2a9 4d3d

fc4.weight f4 [2, 4]
0.9693743 -0.19123293 1.0439667 -0.34399712 -1.0170245 0.14187694 -0.6507894 0.18803342
00000000: ea28 783f 91d2 43be b3a0 853f 6420 b0be
00000010: dc2d 82bf 3048 113e 229a 26bf d58b 403e

fc4.bias f4 [2]
0.26998216 0.050619703
00000000: 1a3b 8a3e 9b56 4f3d
