resultados/Neida/P148_K2/3271i01-nn-model.pt (torch, 2703 bytes, 8 tensors)

fc1.weight f4 [4, 3]
0	0xbed3834d	-0.41311112
1	0xbd91a373	-0.071112536
2	0x3ecdd6b0	0.40202856
3	0xbd435a17	-0.04769334
4	0x3e978228	0.2959149
5	0xbe625cc8	-0.22105706
6	0x3f0cd71a	0.5501572
7	0xbd83666e	-0.06416021
8	0x3dcf0a3d	0.10109375
9	0x3eec7e1d	0.46189967
10	0xbe657a62	-0.22409967
11	0xbebb2bae	-0.36556762

fc1.bias f4 [4]
0	0x3ea068ea	0.31330043
1	0x3d26f443	0.04076029
2	0x3d250c2e	0.04029482
3	0xbeb1bd99	-0.34714964

fc2.weight f4 [4, 4]
0	0xbf174f94	-0.591058
1	0x3ecd1ae3	0.40059575
2	0x3ec02b04	0.37532818
3	0x3ead85ae	0.33891052
4	0x3dd598d5	0.10429541
5	0x3e719687	0.23592578
6	0xbe48deed	-0.1961629
7	0x3eeca16c	0.46216905
8	0xbdb9afe8	-0.090667546
9	0xbde21650	-0.11039412
10	0xbe8344b0	-0.25638342
11	0x3ef4aaf2	0.4778667
12	0x3d680e85	0.056654472
13	0xbe898d98	-0.2686584
14	0xbe1917dc	-0.14950508
15	0xbea47e9a	-0.3212784

fc2.bias f4 [4]
0	0x3d6f37fb	0.058402997
1	0xbe65aaf9	-0.22428502
2	0x3ebb0274	0.3652531
3	0xbf11244a	-0.56696

fc3.weight f4 [4, 4]
0	0xbc4c4a6c	-0.012468915
1	0x3ec13810	0.37738085
2	0xbee8031a	-0.45314866
3	0xbc5f2d7c	-0.013621684
4	0xbd479bb4	-0.048732474
5	0x3e93ffe2	0.2890616
6	0xbee598c6	-0.4484312
7	0xbec57b4c	-0.3857063
8	0x3eb44d96	0.35215443
9	0x3e83757e	0.25675577
10	0xbe89aea8	-0.26891065
11	0x3e35b645	0.17745312
12	0x3eaf4d2f	0.34238574
13	0xbedb3d91	-0.4282041
14	0xbe735670	-0.23763442
15	0x3e7233e2	0.23652604

fc3.bias f4 [4]
0	0xbe9078a5	-0.28217044
1	0x3f84035e	1.0313528
2	0xbbeb0be0	-0.0071730465
3	0xbe60e061	-0.21960594

fc4.weight f4 [2, 4]
0	0xbe6ab684	-0.22921187
1	0xbf86e654	-1.053904
2	0x3d8477bf	0.06468152
3	0x3dc354c4	0.09537652
4	0x3e95e00c	0.29272497
5	0x3ea59580	0.32340622
6	0xbedb1db0	-0.42796087
7	0x3de85eac	0.11346182

fc4.bias f4 [2]
0	0xbd9e7e96	-0.07738988
1	0x3f428614	0.75985837
