resultados/imagens/P262_K441/L67409i1-nn-model.pt (torch, 2703 bytes, 8 tensors)

fc1.weight f4 [4, 3]
00000000: 5596 4fbe 8a7a 13be a1fe 8cbe 3e47 df3e
00000010: 7f07 e13d df50 fabe beb0 af3e 3274 41be
00000020: ea51 fbbd b12c 0d3f ea4d 8ebe 4ade 3bbe
-0.20272191 -0.14402214 -0.27538016 0.4360904 0.10987758 -0.48889825 0.3431453 -0.18891981
-0.12271483 0.5514632 -0.2779382 -0.18346515

fc1.bias f4 [4]
00000000: 590e 0a3e 3c79 673f 0c00 75be 09bf 8d3f
0.13482036 0.90419364 -0.23925799 1.1073924

fc2.weight f4 [4, 4]
00000000: 4f56 153e 5eaa 973e 31a2 c3be 0e7e 28bf
00000010: b904 8b3d 5c3b b7be 9f6a 2c3e 2325 5c3e
00000020: 1760 1fbe 2254 f6be 89ca 943e 4575 d4be
00000030: d669 83be 7663 c63e c667 c83e b228 0f3f
0.14583705 0.29622167 -0.3820968 -0.65817344 0.0678801 -0.35787475 0.16837548 0.21498542
-0.15563999 -0.48111063 0.29060772 -0.4149572 -0.25666684 0.38747758 0.39141673 0.5592147

fc2.bias f4 [4]
00000000: 0797 243f 9f2f aabd 622e f43f 9662 343e
0.6429295 -0.08309864 1.9076655 0.17615733

fc3.weight f4 [4, 4]
00000000: b577 d43e 3cf8 3fbe 3a83 0d40 7979 1cbf
00000010: 7027 b93e 406d 933c 78a5 fd3d 58bd 00bf
00000020: 22f4 d2bd a915 0c3e 7eac 11be 42f6 343f
00000030: 35eb a9bd 18b3 c23d 75cd ff3d 5a86 85be
0.4149758 -0.18747038 2.2111344 -0.6112285 0.361629 0.01799643 0.12385076 -0.50288916
-0.10300471 0.13680138 -0.14225957 0.7068826 -0.08296815 0.09506816 0.1249036 -0.26079065

fc3.bias f4 [4]
00000000: 5619 a43f 263c edbe 61d4 763e 44ae 38be
1.2820232 -0.46334952 0.24104454 -0.18035227

fc4.weight f4 [2, 4]
00000000: a332 39bf b9d7 88be e0bd 253e dbba ef3e
00000010: b34e b13e 1370 a33e d711 22bf 8466 1e3d
-0.7234289 -0.26727083 0.16185713 0.46822247 0.34630355 0.31921443 -0.6330847 0.038671985

fc4.bias f4 [2]
00000000: 0333 8cbe 9612 0cbe
-0.2738267 -0.13678965
