resultados/imagens/P262_K441/L67409i10-nn-model.pt (torch, 2703 bytes, 8 tensors)

fc1.weight f4 [4, 3]
0	0xbe203d4d	-0.15648384
1	0xbe84464d	-0.25834885
2	0x3e8bc7ac	0.27300775
3	0xbe8937de	-0.26800436
4	0x3ea8af11	0.32946065
5	0xbf26f733	-0.65220946
6	0xbee1b061	-0.4407988
7	0xbea53422	-0.32266337
8	0x3da03c60	0.078240156
9	0x3f0c8f76	0.54906404
10	0xbede975e	-0.4347486
11	0x3bc4990c	0.00599969

fc1.bias f4 [4]
0	0x3e8708a9	0.26373795
1	0xbed0ee5f	-0.40806863
2	0x3ed5a5a0	0.41727924
3	0x3f0f5b39	0.5599857

fc2.weight f4 [4, 4]
0	0xbec0f426	-0.3768627
1	0x3e67d4bd	0.22639747
2	0xbea3b112	-0.3197103
3	0x3f330b94	0.6993954
4	0xbeb6e28c	-0.35719717
5	0x3e07d37c	0.13264269
6	0x3db9acc8	0.090661585
7	0x3f4da6b9	0.80332524
8	0x3e7d2f39	0.24725045
9	0xbdd91f18	-0.10601634
10	0x3e2b4fb0	0.16729617
11	0x3f50893b	0.814594
12	0xbe7a603c	-0.24450773
13	0xbe8a3944	-0.26996815
14	0x3e378c68	0.17924654
15	0x3f1bcb0d	0.60856706

fc2.bias f4 [4]
0	0x3b5cda33	0.0033699393
1	0x3e27a4be	0.16371438
2	0x3d0afd17	0.03393277
3	0x3ee9f68b	0.4569591

fc3.weight f4 [4, 4]
0	0x3f452061	0.7700253
1	0x3f39d6a1	0.7259312
2	0x3e9474d6	0.2899539
3	0x3f1f571e	0.62242305
4	0xbe483408	-0.19551098
5	0x3d40da70	0.04708332
6	0xbe119570	-0.14217162
7	0x3d91a220	0.07111001
8	0xbe02dfa0	-0.12780619
9	0xbebeb698	-0.37248683
10	0xbed78f06	-0.42101306
11	0x3e148e6c	0.14507455
12	0x3e5adedb	0.21374075
13	0xbe91946b	-0.28433546
14	0xbef9d4dc	-0.4879521
15	0xbcdcc520	-0.026949465

fc3.bias f4 [4]
0	0xbede38ee	-0.4340281
1	0xbeeacdb0	-0.45860052
2	0xbeb0be62	-0.3452025
3	0xbc20102e	-0.009769483

fc4.weight f4 [2, 4]
0	0x3f08bd7d	0.53414136
1	0xbe95d2a6	-0.29262275
2	0x3dc4bab8	0.09605926
3	0xbe242ac4	-0.16031939
4	0xbd3b152f	-0.0456745
5	0xbeae9a02	-0.34101874
6	0xbe8f17e2	-0.2794791
7	0xbe7ed603	-0.24886326

fc4.bias f4 [2]
0	0xbfccd80a	-1.600343
1	0x3fbcbf61	1.4745904
