resultados/imagens/P262_K441/L67409i4-nn-model.pt (torch, 2703 bytes, 8 tensors)

fc1.weight f4 [4, 3]
000000 cc b2 9f be c0 50 8f bd 07 a7 02 3f b9 b1 00 3f
       -0.311911 -0.06997824 0.51036114 0.50271183
000010 f2 50 a1 be 8b 19 1a be 25 7e 99 be e9 c4 2d bd
       -0.3150707 -0.15048806 -0.29979053 -0.042424116
000020 a2 21 01 3c ec 91 f8 3e e0 bd 1a bf 37 67 72 3e
       0.007881554 0.4854883 -0.60445976 0.23672186

fc1.bias f4 [4]
000000 d4 36 94 3d 5c 9f 10 3f 95 51 8f 3e fe 84 db 3e
       0.0723702 0.56493163 0.2799193 0.42874902

fc2.weight f4 [4, 4]
000000 31 82 4f 3e ac 87 03 be 60 14 ce 3e c1 1e 01 3d
       0.20264508 -0.12844723 0.4024992 0.03152347
000010 e3 9b 4f 3e 0a 9e ff 3e d2 a2 96 3e 15 b4 99 3e
       0.2027431 0.49925262 0.29421097 0.30020204
000020 b7 43 85 3e 72 04 32 3f 96 ea ef be a1 8e ec 3d
       0.26028225 0.69538033 -0.46858662 0.11550642
000030 74 ad 0b 3f eb cf 02 bf a2 ab f1 be cf df 51 be
       0.54561543 -0.5109851 -0.47201258 -0.20495532

fc2.bias f4 [4]
000000 11 bb 76 be e2 76 16 3f 00 30 06 3f 17 a2 a4 3f
       -0.24094798 0.5877515 0.5241699 1.2861966

fc3.weight f4 [4, 4]
000000 ae ff 7c 3e 8d 48 8d be 38 8a e0 be db f9 63 3e
       0.24706909 -0.27594414 -0.43855453 0.22263281
000010 e8 66 99 be ea 4a 86 3e b5 a4 74 3e f7 a7 45 3f
       -0.29961324 0.2622903 0.23890956 0.7720942
000020 cb ed 6f 3e 08 ab 21 3f 88 a2 3e 3f 7e f8 2b bf
       0.23430555 0.631516 0.74466753 -0.67176044
000030 1c d8 06 3e e5 f1 24 3e 5e 7c 1f bd 30 9a 82 be
       0.13168377 0.161079 -0.038936965 -0.2550826

fc3.bias f4 [4]
000000 8c f1 12 be dc 72 c9 3e 55 51 52 bc b4 8f e5 be
       -0.14349955 0.39345443 -0.012836774 -0.448362

fc4.weight f4 [2, 4]
000000 40 ac 09 bc 6a 3a c6 be de e6 1b 3e 0d 1a 70 3e
       -0.008402884 -0.3871644 0.15224788 0.23447438
000010 15 51 dc bd 6c 5b 44 3d 5a e1 fa be 8e 67 b9 3e
       -0.10757653 0.04793875 -0.49000055 0.36211818

fc4.bias f4 [2]
000000 14 57 01 3e bb 6b 2c bc
       0.12630874 -0.010523732
