resultados/imagens/P262_K441/L67409i3-nn-model.pt (torch, 2703 bytes, 8 tensors)

fc1.weight f4 [4, 3]
000000 16 f6 bc 3e f5 d3 a2 3c 87 e6 88 be 71 2f 24 3f
       0.369065 0.01987646 -0.26738378 0.6413489
000010 52 d6 b7 bd f3 ad e4 3e c9 ae 76 be 9b 8f dd 3e
       -0.08976425 0.44663963 -0.24090113 0.43273625
000020 ae a5 d9 3e 23 ad 19 bf 87 b9 f1 3e 70 3f ee be
       0.42509216 -0.6002981 0.4721186 -0.46532774

fc1.bias f4 [4]
000000 01 2c 40 3f 35 e9 90 3f 5b 57 09 be 5a 40 10 bf
       0.75067145 1.1321169 -0.1341223 -0.5634819

fc2.weight f4 [4, 4]
000000 b3 0c e0 bc f7 4a cf 3b b1 43 c5 bd 56 38 91 be
       -0.027349805 0.006326075 -0.09632052 -0.28363293
000010 80 e6 bc be dd 76 dc be 3c c2 ad 3e 72 b8 f1 be
       -0.36894608 -0.43059435 0.33937252 -0.47211033
000020 43 ee ec 3e 20 61 a8 3e e8 a8 91 be 4f f9 63 3e
       0.4627553 0.328866 -0.28449178 0.22263072
000030 30 14 61 3d 6a 9c a6 3e 59 dd a5 3e 1f 15 f1 3e
       0.054950893 0.3254121 0.32395437 0.47086427

fc2.bias f4 [4]
000000 a5 53 23 3c 86 c7 89 be 7f 80 d5 3e e9 e2 b7 be
       0.009968673 -0.26910037 0.41699597 -0.35915306

fc3.weight f4 [4, 4]
000000 83 d5 e0 bd ea 71 80 be d3 72 ee 3e 44 e4 56 bd
       -0.10978224 -0.2508691 0.4657198 -0.052463785
000010 a8 fb 9a 3e 00 a0 0f ba 1e b0 c4 be b2 48 ca be
       0.30270123 -0.0005478859 -0.38415617 -0.39508587
000020 c8 a1 ec be 47 1b 89 3e 9f ea bc be 04 01 81 3e
       -0.4621718 0.26778623 -0.36897752 0.25196087
000030 ad df 12 be 24 6a ab 3d 66 5f 32 3e dc 00 b6 3c
       -0.14343138 0.08369854 0.17419204 0.022217207

fc3.bias f4 [4]
000000 90 30 a5 3e 4c ce 1c be 2b a2 75 be da d4 14 3f
       0.32263613 -0.15313071 -0.23987643 0.58137286

fc4.weight f4 [2, 4]
000000 e5 e7 44 3f 90 17 7c 3d 2f ad e4 be 9d d5 44 3e
       0.7691634 0.06154591 -0.4466338 0.19222112
000010 91 38 e2 3d b8 f0 b7 3d 47 ba d5 3c 25 fd 9c bd
       0.110459454 0.0898146 0.0260898 -0.07665471

fc4.bias f4 [2]
000000 fa 36 08 3f 14 16 0e be
       0.5320889 -0.1387561
