resultados/imagens/P262_K441/L67409i5-nn-model.pt (torch, 2703 bytes, 8 tensors)

fc1.weight f4 [4, 3]
0.13467784 -0.2200943 -0.007965865 0.20613648 -0.47769248 -0.12198841 0.22871204 0.31214902
-0.5564432 -0.374209 -0.27944556 0.0142957475
00000000: fde8 093e 6660 61be 4283 02bc 7115 533e
00000010: 1c94 f4be 0fd5 f9bd 7d33 6a3e ffd1 9f3e
00000020: 1073 0ebf 5298 bfbe 7d13 8fbe b638 6a3c

fc1.bias f4 [4]
0.38386825 -0.39580485 0.16561559 -0.47944313
00000000: 618a c43e efa6 cabe 2297 293e 9279 f5be

fc2.weight f4 [4, 4]
0.1737324 0.35670108 0.75997466 0.04013908 -0.12544161 0.0026797652 0.41423884 -0.07165551
-0.083899915 0.38732868 -0.47033048 -0.34487313 -0.32434636 0.37161094 -0.057965636 0.35899097
00000000: e8e6 313e 86a1 b63e b38d 423f e068 243d
00000010: c473 00be 009f 2f3b 1d17 d43e 20c0 92bd
00000020: b8d3 abbd f24f c63e 28cf f0be 3693 b0be
00000030: ba10 a6be ca43 be3e 606d 6dbd aacd b73e

fc2.bias f4 [4]
0.13891672 -0.4483033 -0.036746442 -0.04426807
00000000: 2f40 0e3e 0388 e5be 7083 16bd 7052 35bd

fc3.weight f4 [4, 4]
0.2385645 -0.43562478 -0.39187247 0.3722934 0.97525275 0.41536102 0.06422579 0.34663486
0.53711474 0.569696 -0.41793698 0.07920647 -0.44978163 0.29631296 0.24710292 0.34316957
00000000: 414a 743e 360a dfbe 82a3 c8be 3e9d be3e
00000010: 2aaa 793f 33aa d43e d088 833d 207a b13e
00000020: 5a80 093f 99d7 113f d6fb d5be 0037 a23d
00000030: c749 e6be 55b6 973e 8c08 7d3e ecb3 af3e

fc3.bias f4 [4]
-0.31559038 -0.28255996 -0.07878989 -0.32565624
00000000: 1095 a1be b3ab 90be 985c a1bd 6abc a6be

fc4.weight f4 [2, 4]
0.2433877 0.24031363 0.18595195 -0.30835053 0.35727343 -0.12437648 -0.35397884 0.3938127
00000000: a03a 793e c714 763e 306a 3e3e 1fe0 9dbe
00000010: 8bec b63e 19b9 febd b73c b5be d1a1 c93e

fc4.bias f4 [2]
-1.5817178 1.5587742
00000000: bb75 cabf ea85 c73f
