resultados/Neida/Berea200/I22-nn-model.pt (torch, 2703 bytes, 8 tensors)

fc1.weight f4 [4, 3]
0	0x3eac93c4	0.33706486
1	0xbe1038db	-0.14084189
2	0x3eb03696	0.34416646
3	0x3eebd596	0.4606139
4	0xbc2bc297	-0.010483406
5	0x3ed7689e	0.42072004
6	0x3f0d4bc5	0.5519374
7	0xbddfd298	-0.109288394
8	0xbcb04496	-0.02151708
9	0xbd7c8c2f	-0.061657127
10	0xbd2f3f76	-0.04278513
11	0x3ef86f48	0.485224

fc1.bias f4 [4]
0	0xbe7f0794	-0.24905235
1	0x3f152c04	0.5827029
2	0xbed14543	-0.40873155
3	0xba4b403d	-0.00077534077

fc2.weight f4 [4, 4]
0	0x3ed4a0e1	0.4152899
1	0x3de94333	0.1138977
2	0x3dda331e	0.10654281
3	0x3ed39124	0.4132167
4	0xbe27d7ac	-0.16390866
5	0x3ea483d5	0.3213183
6	0x3e962564	0.29325402
7	0x3f05b2c7	0.5222592
8	0x3edc9f58	0.4309032
9	0xbee870c6	-0.4539854
10	0xbecd13b8	-0.40054107
11	0xbdd6a633	-0.10480919
12	0x3e980f64	0.29699242
13	0x3e189232	0.14899519
14	0x3e1db1a1	0.15399791
15	0x3e11c776	0.14236245

fc2.bias f4 [4]
0	0x3edeab96	0.43490285
1	0xbeb6bfe2	-0.3569327
2	0xbdddc0d3	-0.10827794
3	0x3e0c029f	0.13672875

fc3.weight f4 [4, 4]
0	0xbe91a112	-0.284432
1	0xba505400	-0.0007947087
2	0xbe61ffe0	-0.22070265
3	0xbe943bfc	-0.28952014
4	0xbe86f0a0	-0.26355457
5	0xbe924836	-0.28570718
6	0x3ec2779a	0.37981874
7	0xbe3678c4	-0.17819506
8	0x3ee36da8	0.444196
9	0x3f01a142	0.50636685
10	0xbe22a6cb	-0.15883939
11	0xbec42513	-0.38309535
12	0xbe93c000	-0.28857422
13	0x3d4b4f50	0.049636185
14	0xbe3f0b68	-0.18656695
15	0xbe71e6b8	-0.23623168

fc3.bias f4 [4]
0	0xbd15a420	-0.036533475
1	0x3e87379a	0.26409608
2	0xbdcd8de6	-0.100368306
3	0x3d0b5ce0	0.03402412

fc4.weight f4 [2, 4]
0	0x3edc719c	0.43055427
1	0x3eafe64e	0.34355396
2	0x3deda743	0.11604168
3	0xbe221720	-0.15829134
4	0xbe8c5186	-0.27405947
5	0xbe7ea9fc	-0.24869531
6	0xbf0187da	-0.5059792
7	0x3d0c3ba0	0.03423655

fc4.bias f4 [2]
0	0x3eae1eb6	0.34007806
1	0xb79bb7a9	-1.8562963e-05
