resultados/imagens/Berea500/I31-nn-model.pt (torch, 2703 bytes, 8 tensors)

fc1.weight f4 [4, 3]
00000000: b6c6 c0be ec89 b53e d563 8dbe 841c 723e
00000010: 5493 abbe 8c7e 7c3d 3162 dcbe 3e22 713c
00000020: 302f be3e f029 3cbe dee0 bebe 5b4d b3be
-0.37651604 0.3545679 -0.27615228 0.2364369 -0.3351084 0.061644122 -0.43043664 0.014717637
0.37145376 -0.18375373 -0.37280935 -0.35019955

fc1.bias f4 [4]
00000000: f64d cf3f af49 89be 2653 3e3d cd74 d3be
1.6195667 -0.2681403 0.046466015 -0.4130005

fc2.weight f4 [4, 4]
00000000: 77e0 b8be 9652 96be c749 db3e 36b0 ba3e
00000010: 5d35 e23e 16f4 d4be b4e0 21bd 0c19 973e
00000020: e57a 393f 0009 923b f5e5 07bf 007a 123b
00000030: 8103 1dbf e876 e73d 8911 56bf 60f7 093e
-0.36108753 -0.29359883 0.42829725 0.36462563 0.44181338 -0.41592473 -0.039520934 0.29511297
0.7245315 0.0044566393 -0.5308526 0.002235055 -0.6133347 0.113019764 -0.83620507 0.13473272

fc2.bias f4 [4]
00000000: 4b1b 893c ec51 d33e c416 053f e19b 8f3f
0.016736647 0.4127344 0.5198786 1.1219445

fc3.weight f4 [4, 4]
00000000: 5b3b 823e 3a06 ec3e a2aa 253f 7a25 79bf
00000010: e7e0 763e 7e23 093f db5b 1e3f a3c3 5abf
00000020: f88e 7c3d 6679 f63e e3e0 413f 23df fdbe
00000030: e5dd 80bd b6aa 10bf 69d7 09be ce89 a83f
0.2543591 0.460985 0.6471349 -0.9732281 0.24109231 0.5356978 0.6185891 -0.8545477
0.061659783 0.48139495 0.75733775 -0.49584302 -0.06292323 -0.56510484 -0.13461079 1.3167055

fc3.bias f4 [4]
00000000: 98bd 1e3f bb39 0c3f 06f2 9f3e a7fc 813f
0.6200805 0.5477559 0.31239337 1.0155228

fc4.weight f4 [2, 4]
00000000: 48bc 1fbf 05ae 33bf b19b f2bd fcff a13f
00000010: bac5 1f3e 63e9 b43c 2049 8c3e 3b8d 60bf
-0.6239667 -0.7018741 -0.11846102 1.2656245 0.1560277 0.022083944 0.2739954 -0.877155

fc4.bias f4 [2]
00000000: 52d8 cb3e a738 c7be
0.39813477 -0.3891041
