resultados/imagens/Berea500/I310-nn-model.pt (torch, 2703 bytes, 8 tensors)

fc1.weight f4 [4, 3]
0	0xbee40ca4	-0.44540894
1	0xbe0b9062	-0.13629296
2	0xbdba125b	-0.09085532
3	0x3efd13ca	0.4942916
4	0xbe2531b8	-0.16132247
5	0xbd9764c4	-0.073922664
6	0x3bd101ef	0.0063784043
7	0xbec8db82	-0.3922997
8	0xbea39cf7	-0.31955692
9	0xbe6c4b43	-0.23075585
10	0xbebef6a1	-0.37297538
11	0xbe8cd22a	-0.27504092

fc1.bias f4 [4]
0	0xbf118299	-0.568399
1	0x3f095be6	0.5365585
2	0xbee8bee6	-0.45458144
3	0x3e5f6bfb	0.21818535

fc2.weight f4 [4, 4]
0	0x3ef5e1d2	0.4802385
1	0xbf322d19	-0.69600064
2	0xbeffd992	-0.4997068
3	0x3e7e1df0	0.24816108
4	0xbd9adb50	-0.07561362
5	0x3f05027c	0.51956916
6	0x3ec05448	0.37564301
7	0xbbe6dd80	-0.007045448
8	0x3e8c7614	0.27433836
9	0x3ea66f6c	0.32506883
10	0xbe09d2bc	-0.13459295
11	0x3e4dd9fc	0.20102686
12	0xbe857b34	-0.2607056
13	0x3e2eb1bb	0.17059986
14	0x3d07e540	0.033177614
15	0xbec68ace	-0.38777775

fc2.bias f4 [4]
0	0x3fa36d80	1.2767792
1	0x3f3aa50c	0.7290809
2	0x3f751680	0.9573746
3	0x3abc4807	0.0014364728

fc3.weight f4 [4, 4]
0	0xbd736e7d	-0.05943154
1	0xbde9e3d5	-0.11420409
2	0x3e10e7bf	0.14150904
3	0xbe75ba3e	-0.23996827
4	0x3f909ffb	1.1298822
5	0x3e1f01df	0.15528058
6	0x3f02ab33	0.5104248
7	0x3d94b4e1	0.072610624
8	0xbea65e0e	-0.32493633
9	0x3dfde11c	0.12396452
10	0x3e9f91ca	0.31165916
11	0x3e897e3a	0.26854116
12	0xbf3a2ab2	-0.727214
13	0x3ecbcae9	0.39803246
14	0x3ecacf40	0.39611244
15	0x3ef4f037	0.4783952

fc3.bias f4 [4]
0	0xbe5a6b8f	-0.21330093
1	0x3f3fd8e8	0.7494035
2	0xbc924870	-0.017856807
3	0x3e4d2cf1	0.20036675

fc4.weight f4 [2, 4]
0	0xbe18f46e	-0.14936993
1	0xbf4d1fab	-0.80126446
2	0x3ebc41ba	0.36768895
3	0x3f2ed72f	0.68297094
4	0x3e63339c	0.22187656
5	0x3ed7b0eb	0.42127165
6	0xbd57cb6c	-0.052684233
7	0xbe8d0df1	-0.275497

fc4.bias f4 [2]
0	0xbe375726	-0.17904338
1	0xbe217368	-0.1576668
