resultados/imagens/Berea500/I312-nn-model.pt (torch, 2703 bytes, 8 tensors)

fc1.weight f4 [4, 3]
000000 16 7b a8 3e 29 db ff be c2 28 13 bf 33 27 05 3f
       0.32906407 -0.49971893 -0.57484066 0.5201294
000010 6b 28 18 be a4 bb 51 be 57 65 d4 be fb 63 57 3e
       -0.14859168 -0.20481735 -0.41483566 0.21034233
000020 59 ff d2 be ab 25 fd 3d 9c 33 3a be 89 d9 a3 3e
       -0.4121044 0.123607 -0.1818375 0.32001904

fc1.bias f4 [4]
000000 a9 77 f7 be bd 81 d2 3e cf 04 a4 3e 60 f1 be 3e
       -0.4833348 0.41114607 0.3203492 0.3729353

fc2.weight f4 [4, 4]
000000 34 6a 80 be c3 99 2d 3f e0 8d 13 3e f6 47 43 3e
       -0.25081027 0.67812747 0.1440959 0.1907042
000010 8a 7e 9b 3e e6 f4 d4 be b4 97 b5 be b8 35 3e 3e
       0.3036998 -0.41593093 -0.35467303 0.1857518
000020 fc 99 14 3e 35 4b 4e bc bc 18 89 be b6 33 f7 be
       0.14511865 -0.012591173 -0.26776683 -0.4828164
000030 38 97 86 3d e5 90 1f bc a6 bc b7 be 25 38 9f 3e
       0.065718114 -0.009739135 -0.35886115 0.31097522

fc2.bias f4 [4]
000000 e5 ef eb 3e c6 51 ae bd 25 ed d2 be 80 01 bc bd
       0.46081463 -0.08511691 -0.41196552 -0.091799736

fc3.weight f4 [4, 4]
000000 0c 65 de 3e 47 2b 82 3e d6 d2 c8 be 13 a8 0f bf
       0.43436468 0.25423643 -0.39223355 -0.56115836
000010 d4 82 e5 bb c4 58 c0 bd 14 70 53 bc 44 53 26 be
       -0.0070041213 -0.09391931 -0.0129051395 -0.16242701
000020 a0 c9 cf be 52 2c 8b 3e ca 4b 9f 3e 98 4a aa be
       -0.40583515 0.2718225 0.3111251 -0.33260036
000030 4f 13 5b 3e 26 ed 83 bf 84 f6 be be 9a 56 61 be
       0.21394084 -1.0306747 -0.37297451 -0.22005692

fc3.bias f4 [4]
000000 0a 63 cb 3e f2 da 3b 3f d8 6b 84 be 04 87 e4 3f
       0.39723998 0.7338096 -0.25863528 1.7853703

fc4.weight f4 [2, 4]
000000 ce 97 0a 3f ab 01 c6 3e 8c fe 3f be 50 df f8 3e
       0.54137886 0.38673148 -0.18749446 0.48607874
000010 22 cd 95 be 69 62 11 bf b0 20 d1 3d 80 67 4c bf
       -0.29258066 -0.56790787 0.10211313 -0.7984543

fc4.bias f4 [2]
000000 e4 a3 bf bf 78 b0 e6 3f
       -1.497189 1.8022604
