resultados/imagens/Berea500/I318-nn-model.pt (torch, 2703 bytes, 8 tensors)

fc1.weight f4 [4, 3]
0	0xbd8ecb74	-0.06972399
1	0x3ecf03a8	0.40432477
2	0xbe66965a	-0.22518292
3	0xbf2e691d	-0.6812914
4	0x3ea0c98b	0.31403765
5	0x3ed8b552	0.42325836
6	0xbe9d9554	-0.3077799
7	0xbf104297	-0.5635161
8	0xbe7c947d	-0.24666019
9	0xbd325895	-0.04354151
10	0x3ebe47cf	0.3716416
11	0x3ddc70f3	0.10763731

fc1.bias f4 [4]
0	0x3f55c3c1	0.8350182
1	0xbe72afb7	-0.23699842
2	0xbe0a1998	-0.13486326
3	0x3ed8c28c	0.42335927

fc2.weight f4 [4, 4]
0	0xbd8bfc71	-0.06835259
1	0x3ef794f7	0.4835584
2	0x3ef3a1b8	0.4758432
3	0x3e65cbc8	0.22441018
4	0xbee2a72e	-0.44268173
5	0xbee385fe	-0.44438165
6	0xbecf419a	-0.40479738
7	0xbdbf6ca8	-0.093468964
8	0x3e9cf627	0.3065655
9	0xbe166015	-0.1468509
10	0x3d24f8d0	0.04027635
11	0x3e4731cc	0.1945259
12	0x3ea78b93	0.32723674
13	0xbec8fbdd	-0.39254656
14	0xbdb9efd8	-0.0907895
15	0x3e7ee4d0	0.24891973

fc2.bias f4 [4]
0	0x3e16479b	0.14675753
1	0x3e4d0490	0.20021272
2	0x3d145a6c	0.036219046
3	0x3f1f230a	0.6216284

fc3.weight f4 [4, 4]
0	0x3ea075f3	0.31339988
1	0x3e9787fc	0.29595935
2	0xbef9c2a4	-0.48781312
3	0x3e91400c	0.28369176
4	0xbd60c602	-0.054876335
5	0x3eb1d0c4	0.34729588
6	0xbb748da8	-0.003731588
7	0x3ee29879	0.44256952
8	0xbe03d440	-0.12873936
9	0xbe256e20	-0.1615529
10	0x3e6f0360	0.23341131
11	0xbe80ebfa	-0.25180036
12	0x3dc8abad	0.097983696
13	0x3e7e9bf8	0.24864185
14	0xbe83ee6e	-0.25767845
15	0x3e254303	0.16138844

fc3.bias f4 [4]
0	0xbefada09	-0.48994473
1	0x3f1aff49	0.60545784
2	0x3e87cf52	0.2652536
3	0xbf03b464	-0.5144713

fc4.weight f4 [2, 4]
0	0xbf054662	-0.5206052
1	0x3ede5868	0.43426824
2	0x3eee0704	0.46489727
3	0x3e112eeb	0.14178054
4	0x3eb41df0	0.3517909
5	0xbee0c1dd	-0.43897906
6	0xbe3d5374	-0.18488866
7	0x3e168fa2	0.14703229

fc4.bias f4 [2]
0	0xbcf1b8bf	-0.02950704
1	0xbe0c3c73	-0.13694935
