resultados/imagens/Berea200/I26-nn-model.pt (torch, 2703 bytes, 8 tensors)

fc1.weight f4 [4, 3]
0.07714903 -0.31961647 0.63217133 0.5822321 -0.28816348 0.20927788 0.4982662 0.08471523
-0.08102858 -0.04101863 -0.5327617 0.2221086
00000000: 5000 9e3d c5a4 a3be fbd5 213f 2a0d 153f
00000010: 2a8a 93be f14c 563e bf1c ff3e 2e7f ad3d
00000020: 50f2 a5bd 2703 28bd 1263 08bf 7070 633e

fc1.bias f4 [4]
-0.44662756 -0.2865223 -0.08766852 0.28022027
00000000: 5eac e4be 0db3 92be 8e8b b3bd 0879 8f3e

fc2.weight f4 [4, 4]
0.33280757 -0.12136282 -0.34593916 -0.49237525 -0.45136115 0.31085855 0.40670273 0.26912183
-0.4789945 0.0065291524 -0.5186189 -0.35584944 -0.19377713 -0.36613816 0.3885765 0.40636057
00000000: c165 aa3e 128d f8bd f01e b1be 9c18 fcbe
00000010: cf18 e7be da28 9f3e 573b d03e 56ca 893e
00000020: c43e f5be 80f2 d53b 35c4 04bf e631 b6be
00000030: 836d 46be 7676 bbbe 80f3 c63e 7e0e d03e

fc2.bias f4 [4]
-0.48168257 0.25649747 1.2477037 0.29138124
00000000: 199f f6be a353 833e c1b4 9f3f ec2f 953e

fc3.weight f4 [4, 4]
-0.0040531405 -0.1531946 -0.21748775 -0.0124464035 0.56079036 -0.16475396 1.216469 -0.33772215
-0.38456705 0.005530624 0.89541775 -0.465579 -0.11075552 0.5145851 -0.18090771 0.37216747
00000000: 35d0 84bb 0cdf 1cbe 1cb5 5ebe 00ec 4bbc
00000010: f58f 0f3f 43b5 28be 42b5 9b3f ebe9 acbe
00000020: f9e5 c4be 3d3a b53b 193a 653f 5f60 eebe
00000030: cad3 e2bd d9bb 033f df3f 39be bc8c be3e

fc3.bias f4 [4]
-0.339151 0.182392 0.20261808 -0.019870605
00000000: 33a5 adbe f8c4 3a3e 1d7b 4f3e aec7 a2bc

fc4.weight f4 [2, 4]
-0.05841266 -0.37566996 -0.39457664 0.18102601 -0.33789515 1.0213515 0.15057075 -0.33921328
00000000: 1d42 6fbd d057 c0be f305 cabe e25e 393e
00000010: 9800 adbe a5bb 823f 382f 1a3e 5dad adbe

fc4.bias f4 [2]
0.07960928 -0.11723758
00000000: 310a a33d 421a f0bd
