resultados/Neida/P262_K441/L67409i1-nn-model.pt (torch, 2703 bytes, 8 tensors)

fc1.weight f4 [4, 3]
0.014059745 -0.15962158 -0.39802766 -0.26842532 0.14365423 0.12936838 0.17446542 -0.25425273
0.06721223 -0.43278193 0.17894633 -0.33691397
00000000: d85a 663c d773 23be 48ca cbbe 0b6f 89be
00000010: 181a 133e 2579 043e 10a7 323e 6a2d 82be
00000020: 91a6 893d 9895 ddbe b53d 373e fd7f acbe

fc1.bias f4 [4]
0.24867016 0.021387095 -0.3651269 -0.27158108
00000000: 64a3 7e3e fd33 af3c eaf1 babe ad0c 8bbe

fc2.weight f4 [4, 4]
-0.34214425 0.45545942 0.1449763 -0.48621976 -0.12532395 -0.37641448 -0.11890721 0.06818974
-0.14709496 -0.0006328963 0.096784815 -0.020011723 -0.4244703 -0.4464708 -0.39146143 0.10645372
00000000: 882d afbe fa31 e93e ab74 143e ccf1 f8be
00000010: ec54 00be 66b9 c0be a085 f3bd 10a7 8b3d
00000020: 10a0 16be f4e8 25ba 1e37 c63d a0ef a3bc
00000030: 2c54 d9be d297 e4be a26d c8be 6804 da3d

fc2.bias f4 [4]
-0.433011 -0.059398532 -0.30602038 -0.055539522
00000000: 9eb3 ddbe e04b 73bd b4ae 9cbe 697d 63bd

fc3.weight f4 [4, 4]
-0.40515912 -0.37771577 0.4297378 0.44225448 0.36282262 0.10025895 -0.23850197 0.039732516
0.22790676 -0.42691892 0.075542815 0.06747792 -0.00177097 -0.044956207 0.07892533 0.29597908
00000000: 0471 cfbe f663 c1be 9806 dc3e 2e6f e23e
00000010: e3c3 b93e 9054 cd3d dc39 74be 90be 223d
00000020: 6460 693e 1e95 dabe 31b6 9a3d dd31 8a3d
00000030: e41f e8ba 0024 38bd 9aa3 a13d 928a 973e

fc3.bias f4 [4]
-0.3036865 -0.5315909 -0.035171673 -0.14898902
00000000: cc7c 9bbe 5716 08bf 2c10 10bd 9490 18be

fc4.weight f4 [2, 4]
0.30250442 -0.6793831 0.1554388 -0.14916372 -0.060928762 0.268252 0.38715917 0.3795628
00000000: dce1 9a3e 0dec 2dbf 592b 1f3e 60be 18be
00000010: 7090 79bd 5358 893e ba39 c63e 0e56 c23e

fc4.bias f4 [2]
1.4953249 -0.9773524
00000000: ce66 bf3f c433 7abf
